…
[… Text: archaic lanes houses unexpected bits square court indeed delighted found poets artists loud voiced pretenders whose quaintness tinsel whose lives denial pure beauty poetry art stayed love venerable things
Converted to sequence:
[3570, 4110, 385, 2425, 6434, 1322, 1821, 65, 2558, 20, 2986, 5251, 1155, 9889, 15660, 41, 15661, 11992, 41, 1183, 5779, 1035, 210, 5252, 541, 3813, 61, 2820, 47]
Shape of the matrix of word vectors: (24944, 100)
Model: "sequential"
_________________________________________________________________
 Layer (type)                Output Shape              Param #   
=================================================================
 embedding (Embedding)       (None, 33, 100)           2494400   
                                                                 
 spatial_dropout1d (SpatialD  (None, 33, 100)          0         
 ropout1D)                                                       
                                                                 
 lstm (LSTM)                 (None, 100)               80400     
                                                                 
 dense (Dense)               (None, 512)               51712     
                                                                 
 dropout (Dropout)           (None, 512)               0         
                                                                 
 dense_1 (Dense)             (None, 256)               131328    
                                                                 
 dropout_1 (Dropout)         (None, 256)               0         
                                                                 
 dense_2 (Dense)             (None, 3)                 771       
                                                                 
=================================================================
Total params: 2,758,611
Trainable params: 264,211
Non-trainable params: 2,494,400
_________________________________________________________________
Epoch 85: early stopping
490/490 [==============================] - 5s 9ms/step
123/123 [==============================] - 1s 9ms/step
…
